…
2026-05-18 18:27:56.277006: W tensorflow/compiler/xla/stream_executor/gpu/asm_compiler.cc:234] Used ptxas at /usr/local/cuda-11.8/bin/ptxas
2026-05-18 18:27:56.277097: W tensorflow/compiler/mlir/tools/kernel_gen/transforms/gpu_kernel_to_blob_pass.cc:191] Failed to compile generated PTX with ptxas. Falling back to compilation by driver.
Model: "M14_imu_single_classifier"
_________________________________________________________________
 Layer (type)                Output Shape              Param #   
=================================================================
 imu (InputLayer)            [(None, 50, 8)]           0         
                                                                 
 imu_conv1 (Conv1D)          (None, 50, 64)            2624      
                                                                 
 imu_bn1 (BatchNormalizatio  (None, 50, 64)            256       
 n)                                                              
                                                                 
 imu_pool1 (MaxPooling1D)    (None, 25, 64)            0         
                                                                 
 imu_conv2 (Conv1D)          (None, 25, 128)           24704     
                                                                 
 imu_bn2 (BatchNormalizatio  (None, 25, 128)           512       
 n)                                                              
                                                                 
 imu_gru (GRU)               (None, 64)                37248     
                                                                 
 imu_feat (Dense)            (None, 128)               8320      
                                                                 
 imu_dropout (Dropout)       (None, 128)               0         
                                                                 
 head_dense1 (Dense)         (None, 128)               16512     
                                                                 
 head_bn1 (BatchNormalizati  (None, 128)               512       
 on)                                                             
                                                                 
 head_dropout1 (Dropout)     (None, 128)               0         
                                                                 
 head_dense2 (Dense)         (None, 64)                8256      
                                                                 
 head_dropout2 (Dropout)     (None, 64)                0         
                                                                 
 output (Dense)              (None, 3)                 195       
                                                                 
=================================================================
Total params: 99139 (387.26 KB)
Trainable params: 98499 (384.76 KB)
Non-trainable params: 640 (2.50 KB)
_________________________________________________________________
Epoch 1/100
2026-05-18 18:27:57.239954: I tensorflow/compiler/xla/stream_executor/cuda/cuda_dnn.cc:442] Loaded cuDNN version 8905
…
