…
2026-05-18 18:54:38.966729: I tensorflow/core/common_runtime/gpu/gpu_device.cc:1886] Created device /job:localhost/replica:0/task:0/device:GPU:0 with 29801 MB memory:  -> device: 0, name: NVIDIA GeForce RTX 5090, pci bus id: 0000:02:00.0, compute capability: 12.0
Model: "M14_image_tof_gated_classifier"
__________________________________________________________________________________________________
 Layer (type)                Output Shape                 Param #   Connected to                  
==================================================================================================
 image (InputLayer)          [(None, 64, 64, 6)]          0         []                            
                                                                                                  
 image_conv1 (Conv2D)        (None, 64, 64, 32)           1760      ['image[0][0]']               
                                                                                                  
 image_bn1 (BatchNormalizat  (None, 64, 64, 32)           128       ['image_conv1[0][0]']         
 ion)                                                                                             
                                                                                                  
 image_pool1 (MaxPooling2D)  (None, 32, 32, 32)           0         ['image_bn1[0][0]']           
                                                                                                  
 tof (InputLayer)            [(None, 50, 2)]              0         []                            
                                                                                                  
 image_conv2 (Conv2D)        (None, 32, 32, 64)           18496     ['image_pool1[0][0]']         
                                                                                                  
 tof_conv1 (Conv1D)          (None, 50, 48)               528       ['tof[0][0]']                 
                                                                                                  
 image_bn2 (BatchNormalizat  (None, 32, 32, 64)           256       ['image_conv2[0][0]']         
 ion)                                                                                             
                                                                                                  
 tof_bn1 (BatchNormalizatio  (None, 50, 48)               192       ['tof_conv1[0][0]']           
 n)                                                                                               
                                                                                                  
 image_pool2 (MaxPooling2D)  (None, 16, 16, 64)           0         ['image_bn2[0][0]']           
                                                                                                  
 tof_pool1 (MaxPooling1D)    (None, 25, 48)               0         ['tof_bn1[0][0]']             
                                                                                                  
 image_conv3 (Conv2D)        (None, 16, 16, 128)          73856     ['image_pool2[0][0]']         
                                                                                                  
 tof_conv2 (Conv1D)          (None, 25, 96)               13920     ['tof_pool1[0][0]']           
                                                                                                  
 image_bn3 (BatchNormalizat  (None, 16, 16, 128)          512       ['image_conv3[0][0]']         
 ion)                                                                                             
                                                                                                  
 tof_bn2 (BatchNormalizatio  (None, 25, 96)               384       ['tof_conv2[0][0]']           
 n)                                                                                               
                                                                                                  
 image_gap (GlobalAveragePo  (None, 128)                  0         ['image_bn3[0][0]']           
 oling2D)                                                                                         
                                                                                                  
 tof_gap (GlobalAveragePool  (None, 96)                   0         ['tof_bn2[0][0]']             
 ing1D)                                                                                           
                                                                                                  
 image_feat (Dense)          (None, 128)                  16512     ['image_gap[0][0]']           
                                                                                                  
 tof_feat (Dense)            (None, 128)                  12416     ['tof_gap[0][0]']             
                                                                                                  
 image_dropout (Dropout)     (None, 128)                  0         ['image_feat[0][0]']          
                                                                                                  
 tof_dropout (Dropout)       (None, 128)                  0         ['tof_feat[0][0]']            
                                                                                                  
 gate_context (Concatenate)  (None, 256)                  0         ['image_dropout[0][0]',       
                                                                     'tof_dropout[0][0]']         
                                                                                                  
 gate_hidden (Dense)         (None, 64)                   16448     ['gate_context[0][0]']        
                                                                                                  
 reshape_image (Reshape)     (None, 1, 128)               0         ['image_dropout[0][0]']       
                                                                                                  
 reshape_tof (Reshape)       (None, 1, 128)               0         ['tof_dropout[0][0]']         
                                                                                                  
 modality_weights (Dense)    (None, 2)                    130       ['gate_hidden[0][0]']         
                                                                                                  
 feature_stack (Concatenate  (None, 2, 128)               0         ['reshape_image[0][0]',       
 )                                                                   'reshape_tof[0][0]']         
                                                                                                  
 weighted_sum (Dot)          (None, 128)                  0         ['modality_weights[0][0]',    
                                                                     'feature_stack[0][0]']       
                                                                                                  
 fused_dense (Dense)         (None, 128)                  16512     ['weighted_sum[0][0]']        
                                                                                                  
 fused_bn (BatchNormalizati  (None, 128)                  512       ['fused_dense[0][0]']         
 on)                                                                                              
                                                                                                  
 fused_dropout (Dropout)     (None, 128)                  0         ['fused_bn[0][0]']            
                                                                                                  
 head_dense1 (Dense)         (None, 128)                  16512     ['fused_dropout[0][0]']       
                                                                                                  
 head_bn1 (BatchNormalizati  (None, 128)                  512       ['head_dense1[0][0]']         
 on)                                                                                              
                                                                                                  
 head_dropout1 (Dropout)     (None, 128)                  0         ['head_bn1[0][0]']            
                                                                                                  
 head_dense2 (Dense)         (None, 64)                   8256      ['head_dropout1[0][0]']       
                                                                                                  
 head_dropout2 (Dropout)     (None, 64)                   0         ['head_dense2[0][0]']         
                                                                                                  
 output (Dense)              (None, 5)                    325       ['head_dropout2[0][0]']       
                                                                                                  
==================================================================================================
Total params: 198167 (774.09 KB)
Trainable params: 196919 (769.21 KB)
Non-trainable params: 1248 (4.88 KB)
__________________________________________________________________________________________________
…
