…
2026-05-18 18:32:01.383652: W tensorflow/compiler/mlir/tools/kernel_gen/transforms/gpu_kernel_to_blob_pass.cc:191] Failed to compile generated PTX with ptxas. Falling back to compilation by driver.
Model: "M14_imu_image_gated_classifier"
__________________________________________________________________________________________________
 Layer (type)                Output Shape                 Param #   Connected to                  
==================================================================================================
 image (InputLayer)          [(None, 64, 64, 6)]          0         []                            
                                                                                                  
 image_conv1 (Conv2D)        (None, 64, 64, 32)           1760      ['image[0][0]']               
                                                                                                  
 image_bn1 (BatchNormalizat  (None, 64, 64, 32)           128       ['image_conv1[0][0]']         
 ion)                                                                                             
                                                                                                  
 imu (InputLayer)            [(None, 50, 8)]              0         []                            
                                                                                                  
 image_pool1 (MaxPooling2D)  (None, 32, 32, 32)           0         ['image_bn1[0][0]']           
                                                                                                  
 imu_conv1 (Conv1D)          (None, 50, 64)               2624      ['imu[0][0]']                 
                                                                                                  
 image_conv2 (Conv2D)        (None, 32, 32, 64)           18496     ['image_pool1[0][0]']         
                                                                                                  
 imu_bn1 (BatchNormalizatio  (None, 50, 64)               256       ['imu_conv1[0][0]']           
 n)                                                                                               
                                                                                                  
 image_bn2 (BatchNormalizat  (None, 32, 32, 64)           256       ['image_conv2[0][0]']         
 ion)                                                                                             
                                                                                                  
 imu_pool1 (MaxPooling1D)    (None, 25, 64)               0         ['imu_bn1[0][0]']             
                                                                                                  
 image_pool2 (MaxPooling2D)  (None, 16, 16, 64)           0         ['image_bn2[0][0]']           
                                                                                                  
 imu_conv2 (Conv1D)          (None, 25, 128)              24704     ['imu_pool1[0][0]']           
                                                                                                  
 image_conv3 (Conv2D)        (None, 16, 16, 128)          73856     ['image_pool2[0][0]']         
                                                                                                  
 imu_bn2 (BatchNormalizatio  (None, 25, 128)              512       ['imu_conv2[0][0]']           
 n)                                                                                               
                                                                                                  
 image_bn3 (BatchNormalizat  (None, 16, 16, 128)          512       ['image_conv3[0][0]']         
 ion)                                                                                             
                                                                                                  
 imu_gru (GRU)               (None, 64)                   37248     ['imu_bn2[0][0]']             
                                                                                                  
 image_gap (GlobalAveragePo  (None, 128)                  0         ['image_bn3[0][0]']           
 oling2D)                                                                                         
                                                                                                  
 imu_feat (Dense)            (None, 128)                  8320      ['imu_gru[0][0]']             
                                                                                                  
 image_feat (Dense)          (None, 128)                  16512     ['image_gap[0][0]']           
                                                                                                  
 imu_dropout (Dropout)       (None, 128)                  0         ['imu_feat[0][0]']            
                                                                                                  
 image_dropout (Dropout)     (None, 128)                  0         ['image_feat[0][0]']          
                                                                                                  
 gate_context (Concatenate)  (None, 256)                  0         ['imu_dropout[0][0]',         
                                                                     'image_dropout[0][0]']       
                                                                                                  
 gate_hidden (Dense)         (None, 64)                   16448     ['gate_context[0][0]']        
                                                                                                  
 reshape_imu (Reshape)       (None, 1, 128)               0         ['imu_dropout[0][0]']         
                                                                                                  
 reshape_image (Reshape)     (None, 1, 128)               0         ['image_dropout[0][0]']       
                                                                                                  
 modality_weights (Dense)    (None, 2)                    130       ['gate_hidden[0][0]']         
                                                                                                  
 feature_stack (Concatenate  (None, 2, 128)               0         ['reshape_imu[0][0]',         
 )                                                                   'reshape_image[0][0]']       
                                                                                                  
 weighted_sum (Dot)          (None, 128)                  0         ['modality_weights[0][0]',    
                                                                     'feature_stack[0][0]']       
                                                                                                  
 fused_dense (Dense)         (None, 128)                  16512     ['weighted_sum[0][0]']        
                                                                                                  
 fused_bn (BatchNormalizati  (None, 128)                  512       ['fused_dense[0][0]']         
 on)                                                                                              
                                                                                                  
 fused_dropout (Dropout)     (None, 128)                  0         ['fused_bn[0][0]']            
                                                                                                  
 head_dense1 (Dense)         (None, 128)                  16512     ['fused_dropout[0][0]']       
                                                                                                  
 head_bn1 (BatchNormalizati  (None, 128)                  512       ['head_dense1[0][0]']         
 on)                                                                                              
                                                                                                  
 head_dropout1 (Dropout)     (None, 128)                  0         ['head_bn1[0][0]']            
                                                                                                  
 head_dense2 (Dense)         (None, 64)                   8256      ['head_dropout1[0][0]']       
                                                                                                  
 head_dropout2 (Dropout)     (None, 64)                   0         ['head_dense2[0][0]']         
                                                                                                  
 output (Dense)              (None, 3)                    195       ['head_dropout2[0][0]']       
                                                                                                  
==================================================================================================
Total params: 244261 (954.14 KB)
Trainable params: 242917 (948.89 KB)
Non-trainable params: 1344 (5.25 KB)
__________________________________________________________________________________________________
…
