…
2026-05-18 18:30:43.063227: I tensorflow/core/common_runtime/gpu/gpu_device.cc:1886] Created device /job:localhost/replica:0/task:0/device:GPU:0 with 29801 MB memory:  -> device: 0, name: NVIDIA GeForce RTX 5090, pci bus id: 0000:02:00.0, compute capability: 12.0
Model: "M14_image_single_classifier"
_________________________________________________________________
 Layer (type)                Output Shape              Param #   
=================================================================
 image (InputLayer)          [(None, 64, 64, 6)]       0         
                                                                 
 image_conv1 (Conv2D)        (None, 64, 64, 32)        1760      
                                                                 
 image_bn1 (BatchNormalizat  (None, 64, 64, 32)        128       
 ion)                                                            
                                                                 
 image_pool1 (MaxPooling2D)  (None, 32, 32, 32)        0         
                                                                 
 image_conv2 (Conv2D)        (None, 32, 32, 64)        18496     
                                                                 
 image_bn2 (BatchNormalizat  (None, 32, 32, 64)        256       
 ion)                                                            
                                                                 
 image_pool2 (MaxPooling2D)  (None, 16, 16, 64)        0         
                                                                 
 image_conv3 (Conv2D)        (None, 16, 16, 128)       73856     
                                                                 
 image_bn3 (BatchNormalizat  (None, 16, 16, 128)       512       
 ion)                                                            
                                                                 
 image_gap (GlobalAveragePo  (None, 128)               0         
 oling2D)                                                        
                                                                 
 image_feat (Dense)          (None, 128)               16512     
                                                                 
 image_dropout (Dropout)     (None, 128)               0         
                                                                 
 head_dense1 (Dense)         (None, 128)               16512     
                                                                 
 head_bn1 (BatchNormalizati  (None, 128)               512       
 on)                                                             
                                                                 
 head_dropout1 (Dropout)     (None, 128)               0         
                                                                 
 head_dense2 (Dense)         (None, 64)                8256      
                                                                 
 head_dropout2 (Dropout)     (None, 64)                0         
                                                                 
 output (Dense)              (None, 3)                 195       
                                                                 
=================================================================
Total params: 136995 (535.14 KB)
Trainable params: 136291 (532.39 KB)
Non-trainable params: 704 (2.75 KB)
_________________________________________________________________
Epoch 1/100
2026-05-18 18:30:45.045889: I tensorflow/compiler/xla/stream_executor/cuda/cuda_dnn.cc:442] Loaded cuDNN version 8905
…
