…
2026-05-18 18:53:24.191488: I tensorflow/core/common_runtime/gpu/gpu_device.cc:1886] Created device /job:localhost/replica:0/task:0/device:GPU:0 with 29801 MB memory:  -> device: 0, name: NVIDIA GeForce RTX 5090, pci bus id: 0000:02:00.0, compute capability: 12.0
Model: "M14_audio_single_classifier"
_________________________________________________________________
 Layer (type)                Output Shape              Param #   
=================================================================
 audio (InputLayer)          [(None, 40, 40, 1)]       0         
                                                                 
 audio_conv1 (Conv2D)        (None, 40, 40, 32)        320       
                                                                 
 audio_bn1 (BatchNormalizat  (None, 40, 40, 32)        128       
 ion)                                                            
                                                                 
 audio_pool1 (MaxPooling2D)  (None, 20, 20, 32)        0         
                                                                 
 audio_conv2 (Conv2D)        (None, 20, 20, 64)        18496     
                                                                 
 audio_bn2 (BatchNormalizat  (None, 20, 20, 64)        256       
 ion)                                                            
                                                                 
 audio_pool2 (MaxPooling2D)  (None, 10, 10, 64)        0         
                                                                 
 audio_conv3 (Conv2D)        (None, 10, 10, 128)       73856     
                                                                 
 audio_bn3 (BatchNormalizat  (None, 10, 10, 128)       512       
 ion)                                                            
                                                                 
 audio_gap (GlobalAveragePo  (None, 128)               0         
 oling2D)                                                        
                                                                 
 audio_feat (Dense)          (None, 128)               16512     
                                                                 
 audio_dropout (Dropout)     (None, 128)               0         
                                                                 
 head_dense1 (Dense)         (None, 128)               16512     
                                                                 
 head_bn1 (BatchNormalizati  (None, 128)               512       
 on)                                                             
                                                                 
 head_dropout1 (Dropout)     (None, 128)               0         
                                                                 
 head_dense2 (Dense)         (None, 64)                8256      
                                                                 
 head_dropout2 (Dropout)     (None, 64)                0         
                                                                 
 output (Dense)              (None, 5)                 325       
                                                                 
=================================================================
Total params: 135685 (530.02 KB)
Trainable params: 134981 (527.27 KB)
Non-trainable params: 704 (2.75 KB)
_________________________________________________________________
Epoch 1/100
2026-05-18 18:53:24.840514: I tensorflow/compiler/xla/stream_executor/cuda/cuda_dnn.cc:442] Loaded cuDNN version 8905
…
