…
 Layer (type)                Output Shape                 Param #   Connected to                  
==================================================================================================
 image (InputLayer)          [(None, 64, 64, 6)]          0         []                            
                                                                                                  
 audio (InputLayer)          [(None, 40, 40, 1)]          0         []                            
                                                                                                  
 image_conv1 (Conv2D)        (None, 64, 64, 32)           1760      ['image[0][0]']               
                                                                                                  
 audio_conv1 (Conv2D)        (None, 40, 40, 32)           320       ['audio[0][0]']               
                                                                                                  
 image_bn1 (BatchNormalizat  (None, 64, 64, 32)           128       ['image_conv1[0][0]']         
 ion)                                                                                             
                                                                                                  
 audio_bn1 (BatchNormalizat  (None, 40, 40, 32)           128       ['audio_conv1[0][0]']         
 ion)                                                                                             
                                                                                                  
 image_pool1 (MaxPooling2D)  (None, 32, 32, 32)           0         ['image_bn1[0][0]']           
                                                                                                  
 audio_pool1 (MaxPooling2D)  (None, 20, 20, 32)           0         ['audio_bn1[0][0]']           
                                                                                                  
 image_conv2 (Conv2D)        (None, 32, 32, 64)           18496     ['image_pool1[0][0]']         
                                                                                                  
 audio_conv2 (Conv2D)        (None, 20, 20, 64)           18496     ['audio_pool1[0][0]']         
                                                                                                  
 image_bn2 (BatchNormalizat  (None, 32, 32, 64)           256       ['image_conv2[0][0]']         
 ion)                                                                                             
                                                                                                  
 audio_bn2 (BatchNormalizat  (None, 20, 20, 64)           256       ['audio_conv2[0][0]']         
 ion)                                                                                             
                                                                                                  
 image_pool2 (MaxPooling2D)  (None, 16, 16, 64)           0         ['image_bn2[0][0]']           
                                                                                                  
 audio_pool2 (MaxPooling2D)  (None, 10, 10, 64)           0         ['audio_bn2[0][0]']           
                                                                                                  
 image_conv3 (Conv2D)        (None, 16, 16, 128)          73856     ['image_pool2[0][0]']         
                                                                                                  
 audio_conv3 (Conv2D)        (None, 10, 10, 128)          73856     ['audio_pool2[0][0]']         
                                                                                                  
 image_bn3 (BatchNormalizat  (None, 16, 16, 128)          512       ['image_conv3[0][0]']         
 ion)                                                                                             
                                                                                                  
 audio_bn3 (BatchNormalizat  (None, 10, 10, 128)          512       ['audio_conv3[0][0]']         
 ion)                                                                                             
                                                                                                  
 image_gap (GlobalAveragePo  (None, 128)                  0         ['image_bn3[0][0]']           
 oling2D)                                                                                         
                                                                                                  
 audio_gap (GlobalAveragePo  (None, 128)                  0         ['audio_bn3[0][0]']           
 oling2D)                                                                                         
                                                                                                  
 image_feat (Dense)          (None, 128)                  16512     ['image_gap[0][0]']           
                                                                                                  
 audio_feat (Dense)          (None, 128)                  16512     ['audio_gap[0][0]']           
                                                                                                  
 image_dropout (Dropout)     (None, 128)                  0         ['image_feat[0][0]']          
                                                                                                  
 audio_dropout (Dropout)     (None, 128)                  0         ['audio_feat[0][0]']          
                                                                                                  
 concat_fusion (Concatenate  (None, 256)                  0         ['image_dropout[0][0]',       
 )                                                                   'audio_dropout[0][0]']       
                                                                                                  
 concat_fused_dense (Dense)  (None, 128)                  32896     ['concat_fusion[0][0]']       
                                                                                                  
 concat_fused_bn (BatchNorm  (None, 128)                  512       ['concat_fused_dense[0][0]']  
 alization)                                                                                       
                                                                                                  
 concat_fused_dropout (Drop  (None, 128)                  0         ['concat_fused_bn[0][0]']     
 out)                                                                                             
                                                                                                  
 head_dense1 (Dense)         (None, 128)                  16512     ['concat_fused_dropout[0][0]']
                                                                                                  
 head_bn1 (BatchNormalizati  (None, 128)                  512       ['head_dense1[0][0]']         
 on)                                                                                              
                                                                                                  
 head_dropout1 (Dropout)     (None, 128)                  0         ['head_bn1[0][0]']            
                                                                                                  
 head_dense2 (Dense)         (None, 64)                   8256      ['head_dropout1[0][0]']       
                                                                                                  
 head_dropout2 (Dropout)     (None, 64)                   0         ['head_dense2[0][0]']         
                                                                                                  
 output (Dense)              (None, 5)                    325       ['head_dropout2[0][0]']       
                                                                                                  
==================================================================================================
Total params: 280613 (1.07 MB)
Trainable params: 279205 (1.07 MB)
Non-trainable params: 1408 (5.50 KB)
__________________________________________________________________________________________________
…
