…
2026-05-24 09:18:56.342529: I tensorflow/core/common_runtime/gpu/gpu_device.cc:1929] Created device /job:localhost/replica:0/task:0/device:GPU:0 with 22149 MB memory:  -> device: 0, name: NVIDIA GeForce RTX 4090, pci bus id: 0000:02:00.0, compute capability: 8.9
Model: "M14_imu_single_classifier"
_________________________________________________________________
 Layer (type)                Output Shape              Param #   
=================================================================
 imu (InputLayer)            [(None, 50, 8)]           0         
                                                                 
 imu_conv1 (Conv1D)          (None, 50, 64)            2624      
                                                                 
 imu_bn1 (BatchNormalizatio  (None, 50, 64)            256       
 n)                                                              
                                                                 
 imu_pool1 (MaxPooling1D)    (None, 25, 64)            0         
                                                                 
 imu_conv2 (Conv1D)          (None, 25, 128)           24704     
                                                                 
 imu_bn2 (BatchNormalizatio  (None, 25, 128)           512       
 n)                                                              
                                                                 
 imu_gru (GRU)               (None, 64)                37248     
                                                                 
 imu_feat (Dense)            (None, 128)               8320      
                                                                 
 imu_dropout (Dropout)       (None, 128)               0         
                                                                 
 head_dense1 (Dense)         (None, 128)               16512     
                                                                 
 head_bn1 (BatchNormalizati  (None, 128)               512       
 on)                                                             
                                                                 
 head_dropout1 (Dropout)     (None, 128)               0         
                                                                 
 head_dense2 (Dense)         (None, 64)                8256      
                                                                 
 head_dropout2 (Dropout)     (None, 64)                0         
                                                                 
 output (Dense)              (None, 3)                 195       
                                                                 
=================================================================
Total params: 99139 (387.26 KB)
Trainable params: 98499 (384.76 KB)
Non-trainable params: 640 (2.50 KB)
_________________________________________________________________
Epoch 1/100
2026-05-24 09:18:57.999742: I external/local_xla/xla/stream_executor/cuda/cuda_dnn.cc:454] Loaded cuDNN version 8907
…
