…
 image (InputLayer)          [(None, 64, 64, 6)]          0         []                            
                                                                                                  
 audio (InputLayer)          [(None, 40, 40, 1)]          0         []                            
                                                                                                  
 tof (InputLayer)            [(None, 50, 2)]              0         []                            
                                                                                                  
 imu_flatten (Flatten)       (None, 400)                  0         ['imu[0][0]']                 
                                                                                                  
 image_flatten (Flatten)     (None, 24576)                0         ['image[0][0]']               
                                                                                                  
 audio_flatten (Flatten)     (None, 1600)                 0         ['audio[0][0]']               
                                                                                                  
 tof_flatten (Flatten)       (None, 100)                  0         ['tof[0][0]']                 
                                                                                                  
 imu_proj (Dense)            (None, 256)                  102656    ['imu_flatten[0][0]']         
                                                                                                  
 image_proj (Dense)          (None, 256)                  6291712   ['image_flatten[0][0]']       
                                                                                                  
 audio_proj (Dense)          (None, 256)                  409856    ['audio_flatten[0][0]']       
                                                                                                  
 tof_proj (Dense)            (None, 256)                  25856     ['tof_flatten[0][0]']         
                                                                                                  
 imu_bn (BatchNormalization  (None, 256)                  1024      ['imu_proj[0][0]']            
 )                                                                                                
                                                                                                  
 image_bn (BatchNormalizati  (None, 256)                  1024      ['image_proj[0][0]']          
 on)                                                                                              
                                                                                                  
 audio_bn (BatchNormalizati  (None, 256)                  1024      ['audio_proj[0][0]']          
 on)                                                                                              
                                                                                                  
 tof_bn (BatchNormalization  (None, 256)                  1024      ['tof_proj[0][0]']            
 )                                                                                                
                                                                                                  
 imu_dropout (Dropout)       (None, 256)                  0         ['imu_bn[0][0]']              
                                                                                                  
 image_dropout (Dropout)     (None, 256)                  0         ['image_bn[0][0]']            
                                                                                                  
 audio_dropout (Dropout)     (None, 256)                  0         ['audio_bn[0][0]']            
                                                                                                  
 tof_dropout (Dropout)       (None, 256)                  0         ['tof_bn[0][0]']              
                                                                                                  
 early_flat_concat (Concate  (None, 1024)                 0         ['imu_dropout[0][0]',         
 nate)                                                               'image_dropout[0][0]',       
                                                                     'audio_dropout[0][0]',       
                                                                     'tof_dropout[0][0]']         
                                                                                                  
 head_dense1 (Dense)         (None, 256)                  262400    ['early_flat_concat[0][0]']   
                                                                                                  
 head_bn1 (BatchNormalizati  (None, 256)                  1024      ['head_dense1[0][0]']         
 on)                                                                                              
                                                                                                  
 head_dropout1 (Dropout)     (None, 256)                  0         ['head_bn1[0][0]']            
                                                                                                  
 head_dense2 (Dense)         (None, 128)                  32896     ['head_dropout1[0][0]']       
                                                                                                  
 head_dropout2 (Dropout)     (None, 128)                  0         ['head_dense2[0][0]']         
                                                                                                  
 output (Dense)              (None, 3)                    387       ['head_dropout2[0][0]']       
                                                                                                  
==================================================================================================
Total params: 7130883 (27.20 MB)
Trainable params: 7128323 (27.19 MB)
Non-trainable params: 2560 (10.00 KB)
__________________________________________________________________________________________________
…
