…
 Layer (type)                Output Shape                 Param #   Connected to                  
==================================================================================================
 image (InputLayer)          [(None, 64, 64, 6)]          0         []                            
                                                                                                  
 audio (InputLayer)          [(None, 40, 40, 1)]          0         []                            
                                                                                                  
 image_conv1 (Conv2D)        (None, 64, 64, 32)           1760      ['image[0][0]']               
                                                                                                  
 audio_conv1 (Conv2D)        (None, 40, 40, 32)           320       ['audio[0][0]']               
                                                                                                  
 image_bn1 (BatchNormalizat  (None, 64, 64, 32)           128       ['image_conv1[0][0]']         
 ion)                                                                                             
                                                                                                  
 audio_bn1 (BatchNormalizat  (None, 40, 40, 32)           128       ['audio_conv1[0][0]']         
 ion)                                                                                             
                                                                                                  
 image_pool1 (MaxPooling2D)  (None, 32, 32, 32)           0         ['image_bn1[0][0]']           
                                                                                                  
 audio_pool1 (MaxPooling2D)  (None, 20, 20, 32)           0         ['audio_bn1[0][0]']           
                                                                                                  
 image_conv2 (Conv2D)        (None, 32, 32, 64)           18496     ['image_pool1[0][0]']         
                                                                                                  
 audio_conv2 (Conv2D)        (None, 20, 20, 64)           18496     ['audio_pool1[0][0]']         
                                                                                                  
 image_bn2 (BatchNormalizat  (None, 32, 32, 64)           256       ['image_conv2[0][0]']         
 ion)                                                                                             
                                                                                                  
 audio_bn2 (BatchNormalizat  (None, 20, 20, 64)           256       ['audio_conv2[0][0]']         
 ion)                                                                                             
                                                                                                  
 image_pool2 (MaxPooling2D)  (None, 16, 16, 64)           0         ['image_bn2[0][0]']           
                                                                                                  
 audio_pool2 (MaxPooling2D)  (None, 10, 10, 64)           0         ['audio_bn2[0][0]']           
                                                                                                  
 image_conv3 (Conv2D)        (None, 16, 16, 128)          73856     ['image_pool2[0][0]']         
                                                                                                  
 audio_conv3 (Conv2D)        (None, 10, 10, 128)          73856     ['audio_pool2[0][0]']         
                                                                                                  
 image_bn3 (BatchNormalizat  (None, 16, 16, 128)          512       ['image_conv3[0][0]']         
 ion)                                                                                             
                                                                                                  
 audio_bn3 (BatchNormalizat  (None, 10, 10, 128)          512       ['audio_conv3[0][0]']         
 ion)                                                                                             
                                                                                                  
 image_gap (GlobalAveragePo  (None, 128)                  0         ['image_bn3[0][0]']           
 oling2D)                                                                                         
                                                                                                  
 audio_gap (GlobalAveragePo  (None, 128)                  0         ['audio_bn3[0][0]']           
 oling2D)                                                                                         
                                                                                                  
 image_feat (Dense)          (None, 128)                  16512     ['image_gap[0][0]']           
                                                                                                  
 audio_feat (Dense)          (None, 128)                  16512     ['audio_gap[0][0]']           
                                                                                                  
 image_dropout (Dropout)     (None, 128)                  0         ['image_feat[0][0]']          
                                                                                                  
 audio_dropout (Dropout)     (None, 128)                  0         ['audio_feat[0][0]']          
                                                                                                  
 image_late_dense1 (Dense)   (None, 128)                  16512     ['image_dropout[0][0]']       
                                                                                                  
 audio_late_dense1 (Dense)   (None, 128)                  16512     ['audio_dropout[0][0]']       
                                                                                                  
 image_late_bn1 (BatchNorma  (None, 128)                  512       ['image_late_dense1[0][0]']   
 lization)                                                                                        
                                                                                                  
 audio_late_bn1 (BatchNorma  (None, 128)                  512       ['audio_late_dense1[0][0]']   
 lization)                                                                                        
                                                                                                  
 image_late_dropout1 (Dropo  (None, 128)                  0         ['image_late_bn1[0][0]']      
 ut)                                                                                              
                                                                                                  
 audio_late_dropout1 (Dropo  (None, 128)                  0         ['audio_late_bn1[0][0]']      
 ut)                                                                                              
                                                                                                  
 image_prob (Dense)          (None, 5)                    645       ['image_late_dropout1[0][0]'] 
                                                                                                  
 audio_prob (Dense)          (None, 5)                    645       ['audio_late_dropout1[0][0]'] 
                                                                                                  
 late_average_output (Avera  (None, 5)                    0         ['image_prob[0][0]',          
 ge)                                                                 'audio_prob[0][0]']          
                                                                                                  
==================================================================================================
Total params: 256938 (1003.66 KB)
Trainable params: 255530 (998.16 KB)
…
