…
 Layer (type)                Output Shape                 Param #   Connected to                  
==================================================================================================
 image (InputLayer)          [(None, 64, 64, 6)]          0         []                            
                                                                                                  
 audio (InputLayer)          [(None, 40, 40, 1)]          0         []                            
                                                                                                  
 image_flatten (Flatten)     (None, 24576)                0         ['image[0][0]']               
                                                                                                  
 audio_flatten (Flatten)     (None, 1600)                 0         ['audio[0][0]']               
                                                                                                  
 image_proj (Dense)          (None, 256)                  6291712   ['image_flatten[0][0]']       
                                                                                                  
 audio_proj (Dense)          (None, 256)                  409856    ['audio_flatten[0][0]']       
                                                                                                  
 image_bn (BatchNormalizati  (None, 256)                  1024      ['image_proj[0][0]']          
 on)                                                                                              
                                                                                                  
 audio_bn (BatchNormalizati  (None, 256)                  1024      ['audio_proj[0][0]']          
 on)                                                                                              
                                                                                                  
 image_dropout (Dropout)     (None, 256)                  0         ['image_bn[0][0]']            
                                                                                                  
 audio_dropout (Dropout)     (None, 256)                  0         ['audio_bn[0][0]']            
                                                                                                  
 early_flat_concat (Concate  (None, 512)                  0         ['image_dropout[0][0]',       
 nate)                                                               'audio_dropout[0][0]']       
                                                                                                  
 head_dense1 (Dense)         (None, 256)                  131328    ['early_flat_concat[0][0]']   
                                                                                                  
 head_bn1 (BatchNormalizati  (None, 256)                  1024      ['head_dense1[0][0]']         
 on)                                                                                              
                                                                                                  
 head_dropout1 (Dropout)     (None, 256)                  0         ['head_bn1[0][0]']            
                                                                                                  
 head_dense2 (Dense)         (None, 128)                  32896     ['head_dropout1[0][0]']       
                                                                                                  
 head_dropout2 (Dropout)     (None, 128)                  0         ['head_dense2[0][0]']         
                                                                                                  
 output (Dense)              (None, 5)                    645       ['head_dropout2[0][0]']       
                                                                                                  
==================================================================================================
Total params: 6869509 (26.21 MB)
Trainable params: 6867973 (26.20 MB)
Non-trainable params: 1536 (6.00 KB)
__________________________________________________________________________________________________
…
